srcnn.pth (torch, 83287 bytes, 5 tensors)

conv1.weight f4 [128, 1, 9, 9]
-0.010830166 -0.00798796 0.11039659 0.027764698 0.012958563 -0.15334508 -0.15366744 -0.011417
0.09408304 -0.0024409809 0.041283406 -0.0021140338 0.0055516567 -0.10524429 0.042968534 0.04509881
0.07172112 0.22711971 -0.04903201 0.021735372 0.12459797 0.06148745 -0.049967617 -0.1182772
-0.16944447 -0.02044601 0.026123496 -0.120452166 0.061191555 0.008862661 -0.074112326 -0.035226535
-0.123556316 -0.23113577 0.07811534 -0.022790413 -0.06781386 -0.08048609 -0.05821359 0.03258157
0.08355918 -0.14957768 -0.15138759 0.029052211 -0.10015897 0.004060517 0.1205223 0.118535325
0.13141532 -0.10230434 -0.18507661 -0.19747491 -0.128627 -0.004587523 0.04614484 0.13340352
0.15019743 0.18893789 -0.08644004 -0.15635271 -0.2606002 -0.23860534 0.008633883 -0.031355064
0.0043925284 0.18520014 0.13202147 0.09950781 -0.1328846 -0.23230936 -0.1571039 -0.11925938
-0.116144575 0.0983684 0.09769106 0.15823758 0.17874162 -0.045477726 -0.025046952 -0.15496835
-0.025161332 -0.005200838 -0.0053469245 0.055612788 -0.04103924 0.1545123 -0.0052323793 0.044936594
0.09187067 0.009323765 -0.100382775 -0.03320491 0.11246965 0.038251575 0.010803373 0.14316687
0.0795876 0.013918429 -0.02467293 -0.041990243 0.071409225 -0.09364917 -0.18595675 -0.11428169
-0.09049938 0.0075865192 0.19083658 -0.0033094313 0.0372985 0.04896654 0.040107574 -0.15257983
0.08743859 -0.16334802 -0.062317755 0.17357153 -0.021192715 -0.0022066939 0.11924765 0.09964958
-0.07543165 -0.03727381 -0.124019206 -0.16133372 0.05734766 -0.005184473 -0.0119256945 -0.1094126
0.0358719 -0.02187779 0.06943274 -0.16820216 -0.23007734 0.08732521 -0.06259359 0.16901432
-0.08311591 0.060240448 -0.0003726123 0.16317849 -0.05033469 0.062357508 -0.042896718 0.1651134
0.054810267 -0.16655196 -0.032423615 -0.14992237 0.102496505 0.02372972 -0.075842746 -0.105850816
-0.090104766 0.073033124 -0.043290395 0.015672438 -0.04916294 -0.02613837 0.008055054 0.121816106
-0.0236677 0.08534016 0.042188752 0.10446312 -0.13115953 -0.13947262 0.0020646835 -0.12379434
0.019719098 0.10941369 0.029934814 -0.108580925 0.068990596 -0.12760752 -0.08876274 0.008510043
0.037373405 -0.1303185 0.08643183 0.08923485 -0.0021767223 -0.056288697 -0.09663867 -0.05525353
-0.0433176 -0.016252981 -0.1238279 0.043981507 -0.1388685 0.030477894 0.11941864 0.048461083
-0.041092012 0.08412123 0.10636446 0.023999851 0.060935684 -0.09504157 -0.050287135 0.06890273
0.0070239636 0.07226152 0.07757611 -0.03844403 0.05351761 -0.072451465 0.030420177 0.025569692
-0.11879924 -0.0036190755 -0.081915766 0.08201892 0.08720099 0.117125526 -0.122936174 -0.1115567
-0.0007275626 -0.0025704121 0.0955307 0.08298908 0.006032629 0.111290656 -0.0431061 -0.06531855
-0.03843527 -0.07070981 -0.0742441 -0.015849043 -0.062229678 -0.005110073 -0.04866566 0.09813886
-0.03616906 -0.03143237 -0.022757027 0.018387148 0.010697843 -0.079213955 0.033109415 -0.039015573
-0.008420419 -0.079569034 -0.06958098 -0.017051574 0.029058723 -0.14916776 -0.098127514 0.086166665
0.039570738 -0.05265182 -0.006738964 -0.06955527 -0.047457628 0.009901306 0.092835575 0.06680518
00000000: 0271 31bc efdf 02bc 9b17 e23d cb72 e33c
00000010: 2750 543c 7e06 1dbe ff5a 1dbe 5e0e 3bbc
00000020: 9cae c03d ddf8 1fbb ca18 293d 9a8b 0abb
00000030: acea b53b 518a d7bd c6ff 2f3d 88b9 383d
00000040: 86e2 923d 1292 683e cad5 48bd 610e b23c
00000050: 382d ff3d 44da 7b3d d8aa 4cbd 513b f2bd
00000060: da82 2dbe 647e a7bc f100 d63c a0af f6bd
00000070: ffa3 7a3d b234 113c 34c8 97bd b349 10bd
00000080: 180b fdbd dbae 6cbe effa 9f3d f6b2 babc
00000090: fee1 8abd e4d5 a4bd 6071 6ebd 4174 053d
000000a0: 1321 ab3d e42a 19be 5905 1bbe e7fe ed3c
000000b0: 2520 cdbd 160e 853b 65d4 f63d a6c2 f23d
000000c0: bd91 063e f084 d1bd b984 3dbe dd36 4abe
000000d0: ccb6 03be ef52 96bb 5f02 3d3d ef9a 083e
000000e0: 5bcd 193e ef78 413e 7a07 b1bd ed1a 20be
000000f0: 646d 85be f554 74be 2175 0d3c 2b6e 00bd
00000100: 33ef 8f3b 1ba5 3d3e a330 073e c0ca cb3d
00000110: e712 08be 81e2 6dbe d8df 20be 433e f4bd
00000120: 35dd edbd 5f75 c93d 4012 c83d 0809 223e
00000130: 0b08 373e da46 3abd 442f cdbc 06b0 1ebe
00000140: 231f cebc cb6b aabb 4135 afbb 3cca 633d
00000150: c318 28bd 7938 1e3e 6174 abbb 6f0f 383d
00000160: b126 bc3d b4c2 183c 7c95 cdbd df01 08bd
00000170: 7d56 e63d afad 1c3d a100 313c 569a 123e
00000180: d3fe a23d 1f0a 643c e21e cabc f6fd 2bbd
00000190: 003f 923d 23cb bfbd 726b 3ebe 850c eabd
000001a0: bd57 b9bd 5698 f83b aa6a 433e 0be3 58bb
000001b0: 50c6 183d 2391 483d d747 243d e33d 1cbe
000001c0: 0113 b33d b444 27be e740 7fbd bcbc 313e
000001d0: 589c adbc 2e9e 10bb 1d38 f43d 1415 cc3d
000001e0: e97b 9abd 6cac 18bd c8fd fdbd ab34 25be
000001f0: 61e5 6a3d 83e2 a9bb fd63 43bc b713 e0bd
00000200: 6aee 123d 0d39 b3bc c132 8e3d 303d 2cbe
00000210: 6599 6bbe 8fd7 b23d 1131 80bd 1712 2d3e
00000220: ad38 aabd b0be 763d 2d5b c3b9 4318 273e
00000230: bf2b 4ebd 966a 7f3d 78b4 2fbd 7d13 293e
00000240: bb80 603d 998c 2abe a0ce 04bd 4085 19be
00000250: b0e9 d13d d464 c23c 7153 9bbd 50c8 d8bd
00000260: d988 b8bd 6492 953d 4551 31bd 7c63 803c
00000270: 145f 49bd 2320 d6bc 58f9 033c b97a f93d
00000280: c4e2 c1bc d2c6 ae3d 1dce 2c3d c3f0 d53d
00000290: af4e 06be e9d1 0ebe a44f 073b e387 fdbd
000002a0: f289 a13c 4914 e03d db39 f53c ad5f debd
000002b0: f14a 8d3d 8cab 02be 3dc9 b5bd b56d 0b3c
000002c0: db14 193d 3672 05be 2c03 b13d c3c0 b63d
000002d0: 57a7 0ebb fa8e 66bd 7fea c5bd 8751 62bd
000002e0: cc6d 31bd f924 85bc 7b99 fdbd f425 343d
000002f0: 8b33 0ebe c7ac f93c c391 f43d 217f 463d
00000300: 1950 28bd c047 ac3d 9cd5 d93d 569b c43c
00000310: b297 793d 28a5 c2bd e2f9 4dbd e01c 8d3d
00000320: 4729 e63b d9fd 933d 39e0 9e3d 7d77 1dbd
00000330: 4835 5b3d 6f61 94bd bc33 f93c 8877 d13c
00000340: 044d f3bd 032e 6dbb 74c3 a7bd 89f9 a73d
00000350: 6f96 b23d 82df ef3d f6c5 fbbd d777 e4bd
00000360: e6b9 3eba 5c74 28bb 9aa5 c33d 2ef6 a93d
00000370: 5cad c53b 5bec e33d 0690 30bd bbc5 85bd
00000380: 4d6e 1dbd 4ed0 90bd 4a0d 98bd dad5 81bc
00000390: 8ce4 7ebd 6672 a7bb a555 47bd 07fd c83d
000003a0: 0226 14bd 3bbf 00bd f26c babc a5a0 963c
000003b0: 0146 2f3c ed3a a2bd bd9d 073d cbce 1fbd
000003c0: ccf5 09bc 17f5 a2bd 7980 8ebd beaf 8bbc
000003d0: 8f0c ee3c 6fbf 18be 14f7 c8bd 2678 b03d
000003e0: ed14 223d 6fa9 57bd 87d2 dcbb fe72 8ebd
000003f0: ee62 42bd 1639 223c 9420 be3d 27d1 883d

conv1.bias f4 [128]
0.039504133 0.18558353 -0.03056318 -0.04665495 0.047400616 -0.041790824 0.037720203 -0.020857751
0.074102856 -0.06281949 -0.056110106 0.03626551 0.0003467978 -0.008225777 0.014294041 0.020554235
-0.004897901 -0.3038654 0.04009844 0.08934398 0.0007101585 -0.12750448 0.00861966 0.0015442673
-0.0011852263 0.025305033 -0.018199295 0.023827428 0.009588872 -0.14078139 0.3036731 -0.035816494
-0.041179534 0.1850906 0.013461142 -0.044032827 -0.13002956 -0.12644382 -0.19880551 -0.0652878
-0.019830463 -0.09323369 -0.009961578 -0.014076614 -0.010153796 -1.6278544e-05 0.0011112936 0.003121005
-0.027114926 0.0052930494 -0.081010714 0.06226789 -0.001081512 0.004834443 0.0023891607 -0.053479265
-0.026757926 0.11745047 0.007193716 -0.0038141513 -0.0033426585 -0.074108906 -0.01615034 -0.044003505
0.13519467 -0.029459778 0.15334769 -0.012187338 0.054707143 0.0012980886 -0.10913209 0.09442564
0.1332683 -0.049088992 0.06520005 -0.03912151 -0.102270275 0.07917281 0.26220858 -0.0050325072
-0.06164347 -0.08586759 0.0033487836 -0.04759862 -0.058108978 0.07228874 -0.10973704 -0.09240754
0.16568358 -0.009333339 -0.013295172 -0.043835714 0.0034251323 -0.2166123 0.041233905 -0.30165002
-0.0013508861 -0.09962837 -0.07515 -0.025214845 0.061278693 0.26462442 0.027722748 0.02285015
0.037702862 0.1697265 0.050713323 -0.06654436 0.05312864 -0.090772234 -0.008518097 0.015218494
-0.09959727 0.0734476 -0.09118913 0.093538545 -0.049942404 -0.009683147 -0.06032158 0.05177974
0.046359506 -0.04822625 -0.08668896 -0.0017354259 0.026604144 0.16126163 0.011312325 0.08326843
00000000: 16cf 213d 9c09 3e3e a25f fabc 4319 3fbd
00000010: 2627 423d db2c 2bbd 8080 1a3d e0dd aabc
00000020: 3dc3 973d 81a7 80bd b6d3 65bd 258b 143d
00000030: 6ad2 b539 69c5 06bc 8e31 6a3c 5b61 a83c
00000040: 927e a0bb 3f94 9bbe 433e 243d faf9 b63d
00000050: ee29 3a3a 8990 02be 7939 0d3c 0369 ca3a
00000060: 9859 9bba 804c cf3c b016 95bc bd31 c33c
00000070: a51a 1d3c ff28 10be 0a7b 9b3e 51b4 12bd
00000080: dfab 28bd 6488 3d3e 1f8c 5c3c c45b 34bd
00000090: 7826 05be 7d7a 01be ac93 4bbe 9cb5 85bd
000000a0: 7f73 a2bc 4ef1 bebd e335 23bc 99a1 66bc
000000b0: 1b5c 26bc e88d 88b7 d3a8 913a c689 4c3b
000000c0: 1f20 debc 5171 ad3b f2e8 a5bd 9d0c 7f3d
000000d0: 85c1 8dba 3f6a 9e3b 7793 1c3b 130d 5bbd
000000e0: 7033 dbbc df89 f03d 43b9 eb3b d7f6 79bb
000000f0: 8110 5bbb 69c6 97bd b84d 84bc 053d 34bd
00000100: 7970 0a3e a255 f1bc 2d07 1d3e 67ad 47bc
00000110: 9914 603d a024 aa3a a580 dfbd 3b62 c13d
00000120: 7c77 083e 8a11 49bd 9b87 853d e03d 20bd
00000130: 1473 d1bd 5b25 a23d 3440 863e bbe7 a4bb
00000140: dd7d 7cbd 59db afbd 4477 5b3b c5f6 42bd
00000150: ae03 6ebd 1e0c 943d d0bd e0bd 2a40 bdbd
00000160: f5a8 293e dcea 18bc fed3 59bc 148d 33bd
00000170: 2f78 603b 9dcf 5dbe e2e4 283d df71 9abe
00000180: 3710 b1ba f509 ccbd 3ee8 99bd 5d8f cebc
00000190: 5eff 7a3d da7c 873e d11a e33c 3d30 bb3c
000001a0: 516e 1a3d c9cc 2d3e c6b8 4f3d 6948 88bd
000001b0: 6b9d 593d cbe6 b9bd 7d8f 0bbc fe56 793c
000001c0: a7f9 cbbd b26b 963d 5ec1 babd 2391 bf3d
000001d0: 6890 4cbd 10a6 1ebc c313 77bd fe16 543d
000001e0: 77e3 3d3d e388 45bd fb89 b1bd 3b77 e3ba
000001f0: eff0 d93c c521 253e 5457 393c a388 aa3d

conv2.weight f4 [64, 128, 1, 1]
0.018783405 0.01813102 0.011382723 0.049476992 -0.050172217 0.0041242405 -0.01313759 -0.043139376
-0.03242932 -0.08283307 0.015569446 0.044503074 0.005641608 -0.10005958 -0.14797299 0.047521584
0.0035875444 -0.10024875 0.042027615 0.06803432 0.036340132 -0.016293308 0.03110169 -0.032158192
-0.06258923 0.07069953 -0.014566829 -0.08485849 -0.0052768365 0.04951157 -0.005580459 -0.101815
0.048666686 -6.723195e-05 0.006263433 -0.02873256 -0.04781437 -0.10633245 0.065462336 0.012609357
0.003569382 -0.0837186 0.02386102 -0.044409383 0.027544567 -0.037437577 -0.051801182 -0.0583427
-0.040872887 -0.051092476 -0.10493413 -0.10750558 0.026917612 -0.095861465 -0.12830588 -0.04818594
-0.04962034 -0.06859358 -0.105309024 -0.10198357 0.10770423 0.01720998 0.063483894 -0.04634168
-0.069529876 -0.0047922386 -0.03405783 0.027070597 -0.05085225 0.016678458 -0.044926696 -0.03713458
-0.052884262 -0.10885538 -0.05473206 0.08028712 0.010739733 -0.06223382 -0.009539093 -0.07617251
-0.04042794 -0.02077844 -0.061035536 0.016915303 -0.031790007 -0.10020739 0.015425291 -0.057952665
-0.056006417 -0.068561114 -0.14124069 0.018938035 -0.032906484 -0.04002466 -0.08488586 -0.026074275
0.065319814 -0.027420895 -0.07794202 -0.01642233 0.05106678 -0.12858607 -0.08259111 0.01946586
-0.018464362 -0.005897151 0.003767981 -0.052349832 0.019577242 -0.024558425 -0.013575014 0.028243847
-0.071685 0.009049716 -0.09573125 -0.12518924 -0.0014362615 0.056185693 -0.027763803 -0.048922267
0.08746986 -0.087573566 -0.035893958 -0.0820078 -0.012266895 0.008554593 -0.059891883 -0.049191043
0.11193071 -0.30714497 -0.07665995 -0.10410186 0.05515196 -0.075703345 -0.18474016 0.08619127
0.05319635 -0.069957204 0.058527738 -0.13664299 0.006380615 0.24581146 0.10754823 -0.07866544
-0.5439228 0.055056054 0.071445465 0.036502056 0.15331627 -0.027448703 0.16097593 0.18933131
-0.0464782 -0.048776917 -0.10005262 0.047387958 -0.053501684 0.03817846 -0.022464631 0.5555919
0.08622137 -0.27828103 -0.04582575 0.08496251 -0.057604995 -0.0639992 -0.24325852 0.04599597
0.045710154 0.032329187 -0.18123767 -0.13318124 -0.076593176 0.18147431 -0.7380462 0.001955819
0.1082687 0.029250242 0.019401122 0.048610266 0.34141138 -0.01328901 -0.3368887 0.1057585
-0.75327575 -0.04743361 -0.014619386 -0.39840314 0.035689335 0.07660442 -0.20854214 0.077561885
0.17560697 0.31171477 -0.17369595 0.14999476 -0.017497094 0.17254643 0.058205865 -0.16884127
-0.43030912 -0.09430693 -0.04773103 0.0383367 -0.01804318 0.043299884 -0.15358016 -0.24338244
-0.015342633 0.07603827 -0.24007142 0.076506056 -0.032594 -0.16478066 -0.5219656 0.047074694
0.02329159 -0.5513174 0.45788887 0.24024956 -0.14177899 -0.36383355 0.04761863 -0.043361835
-0.33065942 -0.08290927 0.05075491 -0.017429428 -0.15084183 0.31687966 -0.10708974 -0.12760575
-0.7925849 -0.05617032 -0.041457023 0.057659067 0.16698416 0.064990856 -0.5505371 0.13058282
0.033345554 0.47339723 -0.4409655 0.100455016 0.010443783 -0.024127996 -0.15665045 -0.012163959
-0.052531715 -0.004271756 0.028675046 0.238935 -0.009904785 -0.006518798 -0.07559944 0.031367227
00000000: a8df 993c 8187 943c 9a7e 3a3c 63a8 4a3d
00000010: 6281 4dbd a324 873b 0c3f 57bc eab2 30bd
00000020: 9bd4 04bd 62a4 a9bd fd16 7f3c db48 363d
00000030: 3ddd b83b 09ec ccbd 3b86 17be fea5 423d
00000040: 021d 6b3b 374f cdbd 2625 2c3d 9455 8b3d
00000050: 64d9 143d 8b79 85bc f9c8 fe3c 4fb8 03bd
00000060: c82e 80bd eaca 903d b6a9 6ebc 4aca adbd
00000070: 50e9 acbb a5cc 4a3d 48dc b6bb 6284 d0bd
00000080: b856 473d e1fe 8cb8 7c3d cd3b 8c60 ebbc
00000090: 00d9 43bd d4c4 d9bd 1e11 863d 7a97 4e3c
000000a0: 4bec 693b a874 abbd 3078 c33c 9de6 35bd
000000b0: 25a5 e13c 2558 19bd 7a2d 54bd c1f8 6ebd
000000c0: 546a 27bd 5846 51bd b5e7 d6bd e32b dcbd
000000d0: 5382 dc3c 0453 c4bd 9e62 03be 9f5e 45bd
000000e0: b33e 4bbd ca7a 8cbd 42ac d7bd c3dc d0bd
000000f0: 0994 dc3d f2fb 8c3c d803 823d c6d0 3dbd
00000100: ae65 8ebd 3608 9dbb 3980 0bbd 28c3 dd3c
00000110: 734a 50bd 43a1 883c 0e05 38bd 6e1a 18bd
00000120: 2b9d 58bd 92ef debd b92e 60bd 936d a43d
00000130: b5f5 2f3c e4e8 7ebd db49 1cbc 5500 9cbd
00000140: c597 25bd 8c37 aabc 6600 7abd f691 8a3c
00000150: 3d36 02bd 8839 cdbd 5cba 7c3c c65f 6dbd
00000160: fc66 65bd c569 8cbd 66a1 10be f023 9b3c
00000170: f3c8 06bd e6f0 23bd a3d8 adbd b899 d5bc
00000180: 65c6 853d c9a1 e0bc 11a0 9fbd 1f88 86bc
00000190: 662b 513d 11ac 03be 8725 a9bd de76 9f3c
000001a0: 9342 97bc e33c c1bb 3bf0 763b c76c 56bd
000001b0: 7460 a03c c02e c9bc bc69 5ebc a45f e73c
000001c0: 96cf 92bd 4345 143c bf0e c4bd 9c31 00be
000001d0: f040 bcba f822 663d ea70 e3bc b762 48bd
000001e0: 6623 b33d c559 b3bd 8b05 13bd b5f3 a7bd
000001f0: 16fb 48bc 9028 0c3c 3151 75bd 8c7c 49bd
00000200: ee3b e53d 1b42 9dbe e4ff 9cbd 5b33 d5bd
00000210: 06e7 613d 5b0a 9bbd 862c 3dbe 0c85 b03d
00000220: 6ae4 593d b945 8fbd c8ba 6f3d 24ec 0bbe
00000230: 7a14 d13b 00b6 7b3e 3f42 dc3d 591b a1bd
00000240: 863e 0bbf 7582 613d 0052 923d 2e83 153d
00000250: f1fe 1c3e 1adc e0bc e0d6 243e 11e0 413e
00000260: ed5f 3ebd 4eca 47bd 63e8 ccbd e019 423d
00000270: 9524 5bbd 0461 1c3d bf07 b8bc 453b 0e3f
00000280: d494 b03d da7a 8ebe c8b3 3bbd d300 ae3d
00000290: 37f3 6bbd 0312 83bd c318 79be 4566 3c3d
000002a0: 923a 3b3d 9c6b 043d 5e96 39be aa60 08be
000002b0: e2dc 9cbd 67d4 393e 99f0 3cbf 332d 003b
000002c0: fbbb dd3d 349e ef3c 1aef 9e3c 8f1b 473d
000002d0: 79cd ae3e 26ba 59bc ad7c acbe ea97 d83d
000002e0: aed6 40bf bf49 42bd 2686 6fbc 7ffb cbbe
000002f0: fb2e 123d c7e2 9c3d 128c 55be c4d8 9e3d
00000300: 50d2 333e 1499 9f3e 5add 31be 3a98 193e
00000310: 1156 8fbc 03b0 303e 4669 6e3d bae4 2cbe
00000320: 7a51 dcbe fe23 c1bd 9d81 43bd f206 1d3d
00000330: 4bcf 93bc 385b 313d 1e44 1dbe 3f39 79be
00000340: ab5f 7bbc f4b9 9b3d 48d5 75be 35af 9c3d
00000350: 4981 05bd 43bc 28be 8a9f 05bf 65d1 403d
00000360: 01ce be3c 2323 0dbf 6970 ea3e fb03 763e
00000370: 832e 11be 6448 babe c10b 433d 2e9c 31bd
00000380: 314c a9be 56cc a9bd 61e4 4f3d 29c8 8ebc
00000390: 4876 1abe 0d3e a23e de51 dbbd 15ab 02be
000003a0: d8e6 4abf d912 66bd d7ce 29bd ea2b 6c3d
000003b0: e5fd 2a3e ed19 853d 00f0 0cbf 81b7 053e
000003c0: 5995 083d 1f61 f23e 3bc6 e1be 5cbb cd3d
000003d0: 671c 2b3c 13a8 c5bc fa68 20be 584b 47bc
000003e0: 7f2b 57bd 16fa 8bbb eee7 ea3c 60ab 743e
000003f0: ae47 22bc a49b d5bb e1d3 9abd ec7a 003d

conv2.bias f4 [64]
-0.086139075 0.041639086 0.0137789035 0.1271488 -0.102113724 0.0063710287 -0.107887484 -0.09755344
0.011036487 0.030168649 0.05702824 -0.021720415 -0.081289485 -0.06008467 -0.07436006 -0.082936965
-0.080734074 -0.019831343 -0.05569069 -0.0877238 0.017233083 0.0067413636 -0.011519855 -0.012413841
-0.09494639 -0.0781318 0.022282407 -0.014164472 0.0030066466 0.021216175 -0.051715504 -0.013643691
0.040459245 0.012142665 -0.08385509 -0.046227757 -0.052794814 -0.06254101 0.027701702 0.06238372
0.0514795 -0.00431333 -0.030599037 0.041125584 0.079662085 -0.043177057 0.0521154 0.013786356
-0.0004890687 0.08838361 -0.054653306 -0.14167307 -0.1381057 -0.00196783 -0.08396715 0.08817468
0.0033864914 -0.074623294 -0.03196311 -0.035286974 -0.019789666 0.06511399 -0.039259233 -0.05236664
00000000: af69 b0bd bf8d 2a3d e9c0 613c 4c33 023e
00000010: 0021 d1bd 10c4 d03b 1df4 dcbd 19ca c7bd
00000020: 62d2 343c 3e24 f73c 7296 693d 03ef b1bc
00000030: 1a7b a6bd 581b 76bd 164a 98bd dbda a9bd
00000040: e857 a5bd 5775 a2bc ec1b 64bd 89a8 b3bd
00000050: 652c 8d3c a8e6 dc3b c6bd 3cbc 6c63 4bbc
00000060: 4173 c2bd 9103 a0bd 9889 b63c 1a12 68bc
00000070: 290b 453b 8bcd ad3c a3d3 53bd ca89 5fbc
00000080: 98b8 253d 07f2 463c 38bc abbd 5159 3dbd
00000090: 603f 58bd 8015 80bd aeee e23c 1286 7f3d
000000a0: 2bdc 523d d656 8dbb d5aa fabc 4d73 283d
000000b0: e025 a33d 6dda 30bd f576 553d 2be0 613c
000000c0: d834 00ba 7702 b53d 25dc 5fbd bf12 11be
000000d0: 956b 0dbe b5f6 00bb f8f6 abbd ed94 b43d
000000e0: e6ef 5d3b 19d4 98bd c0eb 02bd 1389 10bd
000000f0: f01d a2bc 7c5a 853d 4ace 20bd 677e 56bd

conv3.weight f4 [1, 64, 5, 5]
-0.0024951627 -0.0114098145 -0.03376562 -0.030869966 0.013220175 0.034701195 0.005895236 0.021416023
-0.029125318 -0.000492658 0.031377345 0.02192234 0.014504843 -0.015172185 -0.06137967 -0.0045516854
0.018169696 -0.000680942 -0.04586592 -0.051905546 -0.017866645 -0.020556854 -0.07026724 -0.04616993
-0.05225924 -0.052103616 -0.050205946 -0.069686465 -0.011319686 -0.027603574 0.05984104 0.001978538
-0.11539912 -0.09099331 -0.014273088 0.04117768 0.06697266 -0.0076906634 -0.08659304 -0.084583744
-0.03072286 0.06976516 0.09918433 0.011286162 -0.0780008 -0.08574045 -0.03865107 0.04282031
0.049725123 -0.020584852 0.033358324 0.005357371 0.021205395 0.0026498067 -0.005636978 0.020523595
0.042178262 0.027405635 0.017289981 -0.000906305 0.04725611 0.022618603 0.020160247 0.044106912
0.037667174 0.007849745 0.007791223 0.0025573894 -0.0016146762 -0.0028017804 -0.01493008 0.03230993
0.037980825 0.03269344 0.029802695 0.08027334 0.081006765 0.070074625 0.06159761 0.034755506
0.021752797 -0.039137974 -0.06641825 -0.008446934 0.057408053 0.027407266 -0.10002875 -0.13941628
-0.081492096 0.025755147 -0.0026144718 -0.06368418 -0.07270617 -0.06939328 0.016815152 0.040129814
0.052885357 0.015431302 0.026524654 0.0635542 0.0039290157 0.014250598 -0.012003581 -0.013397078
0.016310249 0.026001409 0.0012943076 -0.0025520003 -0.00088360044 -0.015806654 0.0015516888 0.005922308
-0.013900864 0.022367144 -0.014784927 -0.014803491 0.024783624 0.006175269 0.025731508 -0.009956458
0.017241564 0.029757697 -0.012349556 0.0056695966 0.023302801 0.013221796 0.029418875 0.07117493
0.046457462 0.021311605 -0.029636048 -0.026007269 0.014506805 0.047838796 0.038506076 -0.026104448
-0.039464083 -0.011404032 0.04036299 0.069423854 -0.038717113 -0.093204595 -0.046725243 -0.007108069
0.01833523 0.0010908018 -0.0017984267 -0.038168166 -0.01865998 -0.008875774 0.00072213844 0.015515009
0.0010234087 -0.015427325 0.007850319 -0.020860689 -0.011274941 -0.01155725 -0.01675077 0.013483539
0.011038197 0.006003266 -0.008934432 -0.0043730685 0.03020266 -0.025749872 -0.026687087 0.023533257
-0.006506376 -0.0067011584 0.017155021 0.019715942 -0.0042191157 -0.01119852 0.02725384 -0.014526318
0.011050515 -0.010868079 0.003084487 -0.019152934 0.012833282 -0.007543119 -0.007982476 0.022128657
0.019980142 -0.006968513 0.012839134 -0.011012979 0.015799358 -0.0059331763 0.023511063 0.018242434
0.0028466692 -0.011952848 -0.010904054 0.012122351 -0.0025169542 0.009694431 8.8465385e-05 0.009753071
-0.06842288 -0.014972084 0.014942887 0.013438541 -0.022888407 -0.016337184 -0.023836888 -0.009656747
-0.00077668997 -0.013057653 -0.071080305 0.02494602 -0.028792454 -0.018778723 0.007997823 -0.04224679
-0.04228914 -0.018833062 -0.009075701 -0.010905442 -0.013812313 -0.0033661881 -0.010258731 -0.004201143
-0.029079817 0.017440304 0.18720436 0.29502442 0.14300004 0.19323678 -0.12311217 0.069724254
0.28937805 0.05590474 -0.006437025 0.009142937 -0.07554856 0.13627353 0.11937404 0.03534248
0.023055302 -0.03789967 -0.09223544 -0.028190836 0.048249576 0.0120409895 0.11069627 0.042179335
-0.02198985 0.013143468 -0.01826653 0.002523286 -0.033085562 -0.07265512 0.019661907 0.011090312
00000000: e285 23bb 3bf0 3abc d24d 0abd 03e3 fcbc
00000010: 6f99 583c d722 0e3d d32c c13b a870 af3c
00000020: 3898 eebc b825 01ba 8885 003d 7b96 b33c
00000030: b9a5 6d3c c294 78bc 4069 7bbd 4e26 95bb
00000040: 9dd8 943c 3e81 32ba e7dd 3bbd e99a 54bd
00000050: 125d 92bc d966 a8bc 45e8 8fbd ae1c 3dbd
00000060: c90d 56bd 9a6a 55bd c0a4 4dbd c7b7 8ebd
00000070: 3476 39bc e420 e2bc e11b 753d 5caa 013b
00000080: 6056 ecbd b35a babd acd9 69bc eda9 283d
00000090: f628 893d f601 fcbb b157 b1bd 3e3a adbd
000000a0: 82ae fbbc 09e1 8e3d 2721 cb3d 98e9 383c
000000b0: e2be 9fbd b098 afbd 9650 1ebd 5964 2f3d
000000c0: 92ac 4b3d 90a1 a8bc bda2 083d e38c af3b
000000d0: f0b6 ad3c 61a8 2d3b 66b6 b8bb 1921 a83c
000000e0: 1dc3 2c3d c881 e03c b8a3 8d3c 1995 6dba
000000f0: 9f8f 413d a64a b93c 1a27 a53c 73a9 343d
00000100: e548 1a3d 389c 003c 844d ff3b e099 273b
00000110: 8ba3 d3ba 139e 37bb 4b9d 74bc 6b57 043d
00000120: c891 1b3d 8ee9 053d c824 f43c 5966 a43d
00000130: e0e6 a53d 4983 8f3d c74d 7c3d ca5b 0e3d
00000140: ec32 b23c 244f 20bd 4b06 88bd 0265 0abc
00000150: b524 6b3d 3485 e03c e0db ccbd 24c3 0ebe
00000160: 54e5 a6bd 75fc d23c 8f57 2bbb da6c 82bd
00000170: f9e6 94bd 101e 8ebd eebf 893c 295f 243d
00000180: 519e 583d 92d3 7c3c 3b4a d93c b428 823d
00000190: f9be 803b 577b 693c abaa 44bc 6b7f 5bbc
000001a0: 129d 853c e800 d53c c2a5 a93a 763f 27bb
000001b0: 6ca1 67ba f57c 81bc 0962 cb3a ec0f c23b
000001c0: 73c0 63bc 4d3b b73c 7a3c 72bc 578a 72bc
000001d0: 0707 cb3c e959 ca3b e2ca d23c 6920 23bc
000001e0: 2e3e 8d3c 6ac6 f33c cb55 4abc 06c8 b93b
000001f0: 84e5 be3c 3ba0 583c daff f03c 29c4 913d
00000200: 2e4a 3e3d ad95 ae3c 4cc7 f2bc 320d d5bc
00000210: f3ad 6d3c 9df2 433d 8cb8 1d3d ffd8 d5bc
00000220: 17a5 21bd fad7 3abc aa53 253d 182e 8e3d
00000230: d695 1ebd 0de2 bebd f862 3fbd ceea e8bb
00000240: c433 963c 3cf9 8e3a 30b9 ebba 3956 1cbd
00000250: d0dc 98bc b26b 11bc e44d 3d3a aa32 7e3c
00000260: e623 863a e4c2 7cbc a09e 003c 09e4 aabc
00000270: 88ba 38bc 9f5a 3dbc e938 89bc 10ea 5c3c
00000280: 8ed9 343c 0cb7 c43b b961 12bc f54b 8fbb
00000290: 926b f73c 65f1 d2bc e19e dabc d1c8 c03c
000002a0: 7033 d5bb 6495 dbbb b088 8c3c 5483 a13c
000002b0: 8240 8abb ff79 37bc 7243 df3c cbff 6dbc
000002c0: 380d 353c 0710 32bc 1b25 4a3b 9de6 9cbc
000002d0: b042 523c 452c f7bb eec8 02bc 2847 b53c
000002e0: 65ad a33c 2058 e4bb 3b5b 523c c86f 34bc
000002f0: a86d 813c 176b c2bb 469a c03c 2871 953c
00000300: 2f8f 3a3b e1d5 43bc eba6 32bc d39c 463c
00000310: 7cf3 24bb 64d5 1e3c 7e86 b938 58cb 1f3c
00000320: 4b21 8cbd 794d 75bc 03d3 743c 542d 5c3c
00000330: 7880 bbbc 8fd5 85bc 9445 c3bc 5537 1ebc
00000340: c89a 4bba c4ef 55bc 8d92 91bd 995b cc3c
00000350: 27de ebbc d6d5 99bc 4d09 033c f80a 2dbd
00000360: 6137 2dbd cb47 9abc 40b2 14bc bdac 32bc
00000370: 0a4d 62bc 449b 5cbb 3d14 28bc bea9 89bb
00000380: cc38 eebc f8de 8e3c 80b2 3f3e 710d 973e
00000390: 9a6e 123e dddf 453e 3c22 fcbd 97cb 8e3d
000003a0: 5c29 943e 5efc 643d aeed d2bb 42cc 153c
000003b0: 34b9 9abd 4a8b 0b3e 607a f43d 47c3 103d
000003c0: 79de bc3c af3c 1bbd efe5 bcbd 78f0 e6bc
000003d0: 59a1 453d 9247 453c bab4 e23d 3dc4 2c3d
000003e0: 0f24 b4bc b357 573c b1a3 95bc b75d 253b
000003f0: ba84 07bd 35cc 94bd 0212 a13c 24b4 353c
